ic| len(dset): 60000
Namespace(batch_size=64, epochs=100, lr=0.001, no_cuda=False, seed=1, log_interval=100, dataset='MNIST-FashionMNIST', dataroot='./data', imageSize=32, outf='./results/joint_confidence_loss/MFM-0.001/', wd=0.0, droprate=0.1, decreasing_lr='60', num_classes=10, beta=0.001, num_channels=1)
Random Seed:  1
load InD data for Experiment:  MNIST-FashionMNIST
Load model
DenseNet3(
  (conv1): Conv2d(1, 24, kernel_size=(3, 3), stride=(1, 1), padding=(1, 1), bias=False)
  (block1): DenseBlock(
    (layer): Sequential(
      (0): BottleneckBlock(
        (bn1): BatchNorm2d(24, eps=1e-05, momentum=0.1, affine=True, track_running_stats=True)
        (relu): ReLU(inplace=True)
        (conv1): Conv2d(24, 48, kernel_size=(1, 1), stride=(1, 1), bias=False)
        (bn2): BatchNorm2d(48, eps=1e-05, momentum=0.1, affine=True, track_running_stats=True)
        (conv2): Conv2d(48, 12, kernel_size=(3, 3), stride=(1, 1), padding=(1, 1), bias=False)
      )
      (1): BottleneckBlock(
        (bn1): BatchNorm2d(36, eps=1e-05, momentum=0.1, affine=True, track_running_stats=True)
        (relu): ReLU(inplace=True)
        (conv1): Conv2d(36, 48, kernel_size=(1, 1), stride=(1, 1), bias=False)
        (bn2): BatchNorm2d(48, eps=1e-05, momentum=0.1, affine=True, track_running_stats=True)
        (conv2): Conv2d(48, 12, kernel_size=(3, 3), stride=(1, 1), padding=(1, 1), bias=False)
      )
      (2): BottleneckBlock(
        (bn1): BatchNorm2d(48, eps=1e-05, momentum=0.1, affine=True, track_running_stats=True)
        (relu): ReLU(inplace=True)
        (conv1): Conv2d(48, 48, kernel_size=(1, 1), stride=(1, 1), bias=False)
        (bn2): BatchNorm2d(48, eps=1e-05, momentum=0.1, affine=True, track_running_stats=True)
        (conv2): Conv2d(48, 12, kernel_size=(3, 3), stride=(1, 1), padding=(1, 1), bias=False)
      )
      (3): BottleneckBlock(
        (bn1): BatchNorm2d(60, eps=1e-05, momentum=0.1, affine=True, track_running_stats=True)
        (relu): ReLU(inplace=True)
        (conv1): Conv2d(60, 48, kernel_size=(1, 1), stride=(1, 1), bias=False)
        (bn2): BatchNorm2d(48, eps=1e-05, momentum=0.1, affine=True, track_running_stats=True)
        (conv2): Conv2d(48, 12, kernel_size=(3, 3), stride=(1, 1), padding=(1, 1), bias=False)
      )
      (4): BottleneckBlock(
        (bn1): BatchNorm2d(72, eps=1e-05, momentum=0.1, affine=True, track_running_stats=True)
        (relu): ReLU(inplace=True)
        (conv1): Conv2d(72, 48, kernel_size=(1, 1), stride=(1, 1), bias=False)
        (bn2): BatchNorm2d(48, eps=1e-05, momentum=0.1, affine=True, track_running_stats=True)
        (conv2): Conv2d(48, 12, kernel_size=(3, 3), stride=(1, 1), padding=(1, 1), bias=False)
      )
      (5): BottleneckBlock(
        (bn1): BatchNorm2d(84, eps=1e-05, momentum=0.1, affine=True, track_running_stats=True)
        (relu): ReLU(inplace=True)
        (conv1): Conv2d(84, 48, kernel_size=(1, 1), stride=(1, 1), bias=False)
        (bn2): BatchNorm2d(48, eps=1e-05, momentum=0.1, affine=True, track_running_stats=True)
        (conv2): Conv2d(48, 12, kernel_size=(3, 3), stride=(1, 1), padding=(1, 1), bias=False)
      )
      (6): BottleneckBlock(
        (bn1): BatchNorm2d(96, eps=1e-05, momentum=0.1, affine=True, track_running_stats=True)
        (relu): ReLU(inplace=True)
        (conv1): Conv2d(96, 48, kernel_size=(1, 1), stride=(1, 1), bias=False)
        (bn2): BatchNorm2d(48, eps=1e-05, momentum=0.1, affine=True, track_running_stats=True)
        (conv2): Conv2d(48, 12, kernel_size=(3, 3), stride=(1, 1), padding=(1, 1), bias=False)
      )
      (7): BottleneckBlock(
        (bn1): BatchNorm2d(108, eps=1e-05, momentum=0.1, affine=True, track_running_stats=True)
        (relu): ReLU(inplace=True)
        (conv1): Conv2d(108, 48, kernel_size=(1, 1), stride=(1, 1), bias=False)
        (bn2): BatchNorm2d(48, eps=1e-05, momentum=0.1, affine=True, track_running_stats=True)
        (conv2): Conv2d(48, 12, kernel_size=(3, 3), stride=(1, 1), padding=(1, 1), bias=False)
      )
      (8): BottleneckBlock(
        (bn1): BatchNorm2d(120, eps=1e-05, momentum=0.1, affine=True, track_running_stats=True)
        (relu): ReLU(inplace=True)
        (conv1): Conv2d(120, 48, kernel_size=(1, 1), stride=(1, 1), bias=False)
        (bn2): BatchNorm2d(48, eps=1e-05, momentum=0.1, affine=True, track_running_stats=True)
        (conv2): Conv2d(48, 12, kernel_size=(3, 3), stride=(1, 1), padding=(1, 1), bias=False)
      )
      (9): BottleneckBlock(
        (bn1): BatchNorm2d(132, eps=1e-05, momentum=0.1, affine=True, track_running_stats=True)
        (relu): ReLU(inplace=True)
        (conv1): Conv2d(132, 48, kernel_size=(1, 1), stride=(1, 1), bias=False)
        (bn2): BatchNorm2d(48, eps=1e-05, momentum=0.1, affine=True, track_running_stats=True)
        (conv2): Conv2d(48, 12, kernel_size=(3, 3), stride=(1, 1), padding=(1, 1), bias=False)
      )
      (10): BottleneckBlock(
        (bn1): BatchNorm2d(144, eps=1e-05, momentum=0.1, affine=True, track_running_stats=True)
        (relu): ReLU(inplace=True)
        (conv1): Conv2d(144, 48, kernel_size=(1, 1), stride=(1, 1), bias=False)
        (bn2): BatchNorm2d(48, eps=1e-05, momentum=0.1, affine=True, track_running_stats=True)
        (conv2): Conv2d(48, 12, kernel_size=(3, 3), stride=(1, 1), padding=(1, 1), bias=False)
      )
      (11): BottleneckBlock(
        (bn1): BatchNorm2d(156, eps=1e-05, momentum=0.1, affine=True, track_running_stats=True)
        (relu): ReLU(inplace=True)
        (conv1): Conv2d(156, 48, kernel_size=(1, 1), stride=(1, 1), bias=False)
        (bn2): BatchNorm2d(48, eps=1e-05, momentum=0.1, affine=True, track_running_stats=True)
        (conv2): Conv2d(48, 12, kernel_size=(3, 3), stride=(1, 1), padding=(1, 1), bias=False)
      )
      (12): BottleneckBlock(
        (bn1): BatchNorm2d(168, eps=1e-05, momentum=0.1, affine=True, track_running_stats=True)
        (relu): ReLU(inplace=True)
        (conv1): Conv2d(168, 48, kernel_size=(1, 1), stride=(1, 1), bias=False)
        (bn2): BatchNorm2d(48, eps=1e-05, momentum=0.1, affine=True, track_running_stats=True)
        (conv2): Conv2d(48, 12, kernel_size=(3, 3), stride=(1, 1), padding=(1, 1), bias=False)
      )
      (13): BottleneckBlock(
        (bn1): BatchNorm2d(180, eps=1e-05, momentum=0.1, affine=True, track_running_stats=True)
        (relu): ReLU(inplace=True)
        (conv1): Conv2d(180, 48, kernel_size=(1, 1), stride=(1, 1), bias=False)
        (bn2): BatchNorm2d(48, eps=1e-05, momentum=0.1, affine=True, track_running_stats=True)
        (conv2): Conv2d(48, 12, kernel_size=(3, 3), stride=(1, 1), padding=(1, 1), bias=False)
      )
      (14): BottleneckBlock(
        (bn1): BatchNorm2d(192, eps=1e-05, momentum=0.1, affine=True, track_running_stats=True)
        (relu): ReLU(inplace=True)
        (conv1): Conv2d(192, 48, kernel_size=(1, 1), stride=(1, 1), bias=False)
        (bn2): BatchNorm2d(48, eps=1e-05, momentum=0.1, affine=True, track_running_stats=True)
        (conv2): Conv2d(48, 12, kernel_size=(3, 3), stride=(1, 1), padding=(1, 1), bias=False)
      )
      (15): BottleneckBlock(
        (bn1): BatchNorm2d(204, eps=1e-05, momentum=0.1, affine=True, track_running_stats=True)
        (relu): ReLU(inplace=True)
        (conv1): Conv2d(204, 48, kernel_size=(1, 1), stride=(1, 1), bias=False)
        (bn2): BatchNorm2d(48, eps=1e-05, momentum=0.1, affine=True, track_running_stats=True)
        (conv2): Conv2d(48, 12, kernel_size=(3, 3), stride=(1, 1), padding=(1, 1), bias=False)
      )
    )
  )
  (trans1): TransitionBlock(
    (bn1): BatchNorm2d(216, eps=1e-05, momentum=0.1, affine=True, track_running_stats=True)
    (relu): ReLU(inplace=True)
    (conv1): Conv2d(216, 108, kernel_size=(1, 1), stride=(1, 1), bias=False)
  )
  (block2): DenseBlock(
    (layer): Sequential(
      (0): BottleneckBlock(
        (bn1): BatchNorm2d(108, eps=1e-05, momentum=0.1, affine=True, track_running_stats=True)
        (relu): ReLU(inplace=True)
        (conv1): Conv2d(108, 48, kernel_size=(1, 1), stride=(1, 1), bias=False)
        (bn2): BatchNorm2d(48, eps=1e-05, momentum=0.1, affine=True, track_running_stats=True)
        (conv2): Conv2d(48, 12, kernel_size=(3, 3), stride=(1, 1), padding=(1, 1), bias=False)
      )
      (1): BottleneckBlock(
        (bn1): BatchNorm2d(120, eps=1e-05, momentum=0.1, affine=True, track_running_stats=True)
        (relu): ReLU(inplace=True)
        (conv1): Conv2d(120, 48, kernel_size=(1, 1), stride=(1, 1), bias=False)
        (bn2): BatchNorm2d(48, eps=1e-05, momentum=0.1, affine=True, track_running_stats=True)
        (conv2): Conv2d(48, 12, kernel_size=(3, 3), stride=(1, 1), padding=(1, 1), bias=False)
      )
      (2): BottleneckBlock(
        (bn1): BatchNorm2d(132, eps=1e-05, momentum=0.1, affine=True, track_running_stats=True)
        (relu): ReLU(inplace=True)
        (conv1): Conv2d(132, 48, kernel_size=(1, 1), stride=(1, 1), bias=False)
        (bn2): BatchNorm2d(48, eps=1e-05, momentum=0.1, affine=True, track_running_stats=True)
        (conv2): Conv2d(48, 12, kernel_size=(3, 3), stride=(1, 1), padding=(1, 1), bias=False)
      )
      (3): BottleneckBlock(
        (bn1): BatchNorm2d(144, eps=1e-05, momentum=0.1, affine=True, track_running_stats=True)
        (relu): ReLU(inplace=True)
        (conv1): Conv2d(144, 48, kernel_size=(1, 1), stride=(1, 1), bias=False)
        (bn2): BatchNorm2d(48, eps=1e-05, momentum=0.1, affine=True, track_running_stats=True)
        (conv2): Conv2d(48, 12, kernel_size=(3, 3), stride=(1, 1), padding=(1, 1), bias=False)
      )
      (4): BottleneckBlock(
        (bn1): BatchNorm2d(156, eps=1e-05, momentum=0.1, affine=True, track_running_stats=True)
        (relu): ReLU(inplace=True)
        (conv1): Conv2d(156, 48, kernel_size=(1, 1), stride=(1, 1), bias=False)
        (bn2): BatchNorm2d(48, eps=1e-05, momentum=0.1, affine=True, track_running_stats=True)
        (conv2): Conv2d(48, 12, kernel_size=(3, 3), stride=(1, 1), padding=(1, 1), bias=False)
      )
      (5): BottleneckBlock(
        (bn1): BatchNorm2d(168, eps=1e-05, momentum=0.1, affine=True, track_running_stats=True)
        (relu): ReLU(inplace=True)
        (conv1): Conv2d(168, 48, kernel_size=(1, 1), stride=(1, 1), bias=False)
        (bn2): BatchNorm2d(48, eps=1e-05, momentum=0.1, affine=True, track_running_stats=True)
        (conv2): Conv2d(48, 12, kernel_size=(3, 3), stride=(1, 1), padding=(1, 1), bias=False)
      )
      (6): BottleneckBlock(
        (bn1): BatchNorm2d(180, eps=1e-05, momentum=0.1, affine=True, track_running_stats=True)
        (relu): ReLU(inplace=True)
        (conv1): Conv2d(180, 48, kernel_size=(1, 1), stride=(1, 1), bias=False)
        (bn2): BatchNorm2d(48, eps=1e-05, momentum=0.1, affine=True, track_running_stats=True)
        (conv2): Conv2d(48, 12, kernel_size=(3, 3), stride=(1, 1), padding=(1, 1), bias=False)
      )
      (7): BottleneckBlock(
        (bn1): BatchNorm2d(192, eps=1e-05, momentum=0.1, affine=True, track_running_stats=True)
        (relu): ReLU(inplace=True)
        (conv1): Conv2d(192, 48, kernel_size=(1, 1), stride=(1, 1), bias=False)
        (bn2): BatchNorm2d(48, eps=1e-05, momentum=0.1, affine=True, track_running_stats=True)
        (conv2): Conv2d(48, 12, kernel_size=(3, 3), stride=(1, 1), padding=(1, 1), bias=False)
      )
      (8): BottleneckBlock(
        (bn1): BatchNorm2d(204, eps=1e-05, momentum=0.1, affine=True, track_running_stats=True)
        (relu): ReLU(inplace=True)
        (conv1): Conv2d(204, 48, kernel_size=(1, 1), stride=(1, 1), bias=False)
        (bn2): BatchNorm2d(48, eps=1e-05, momentum=0.1, affine=True, track_running_stats=True)
        (conv2): Conv2d(48, 12, kernel_size=(3, 3), stride=(1, 1), padding=(1, 1), bias=False)
      )
      (9): BottleneckBlock(
        (bn1): BatchNorm2d(216, eps=1e-05, momentum=0.1, affine=True, track_running_stats=True)
        (relu): ReLU(inplace=True)
        (conv1): Conv2d(216, 48, kernel_size=(1, 1), stride=(1, 1), bias=False)
        (bn2): BatchNorm2d(48, eps=1e-05, momentum=0.1, affine=True, track_running_stats=True)
        (conv2): Conv2d(48, 12, kernel_size=(3, 3), stride=(1, 1), padding=(1, 1), bias=False)
      )
      (10): BottleneckBlock(
        (bn1): BatchNorm2d(228, eps=1e-05, momentum=0.1, affine=True, track_running_stats=True)
        (relu): ReLU(inplace=True)
        (conv1): Conv2d(228, 48, kernel_size=(1, 1), stride=(1, 1), bias=False)
        (bn2): BatchNorm2d(48, eps=1e-05, momentum=0.1, affine=True, track_running_stats=True)
        (conv2): Conv2d(48, 12, kernel_size=(3, 3), stride=(1, 1), padding=(1, 1), bias=False)
      )
      (11): BottleneckBlock(
        (bn1): BatchNorm2d(240, eps=1e-05, momentum=0.1, affine=True, track_running_stats=True)
        (relu): ReLU(inplace=True)
        (conv1): Conv2d(240, 48, kernel_size=(1, 1), stride=(1, 1), bias=False)
        (bn2): BatchNorm2d(48, eps=1e-05, momentum=0.1, affine=True, track_running_stats=True)
        (conv2): Conv2d(48, 12, kernel_size=(3, 3), stride=(1, 1), padding=(1, 1), bias=False)
      )
      (12): BottleneckBlock(
        (bn1): BatchNorm2d(252, eps=1e-05, momentum=0.1, affine=True, track_running_stats=True)
        (relu): ReLU(inplace=True)
        (conv1): Conv2d(252, 48, kernel_size=(1, 1), stride=(1, 1), bias=False)
        (bn2): BatchNorm2d(48, eps=1e-05, momentum=0.1, affine=True, track_running_stats=True)
        (conv2): Conv2d(48, 12, kernel_size=(3, 3), stride=(1, 1), padding=(1, 1), bias=False)
      )
      (13): BottleneckBlock(
        (bn1): BatchNorm2d(264, eps=1e-05, momentum=0.1, affine=True, track_running_stats=True)
        (relu): ReLU(inplace=True)
        (conv1): Conv2d(264, 48, kernel_size=(1, 1), stride=(1, 1), bias=False)
        (bn2): BatchNorm2d(48, eps=1e-05, momentum=0.1, affine=True, track_running_stats=True)
        (conv2): Conv2d(48, 12, kernel_size=(3, 3), stride=(1, 1), padding=(1, 1), bias=False)
      )
      (14): BottleneckBlock(
        (bn1): BatchNorm2d(276, eps=1e-05, momentum=0.1, affine=True, track_running_stats=True)
        (relu): ReLU(inplace=True)
        (conv1): Conv2d(276, 48, kernel_size=(1, 1), stride=(1, 1), bias=False)
        (bn2): BatchNorm2d(48, eps=1e-05, momentum=0.1, affine=True, track_running_stats=True)
        (conv2): Conv2d(48, 12, kernel_size=(3, 3), stride=(1, 1), padding=(1, 1), bias=False)
      )
      (15): BottleneckBlock(
        (bn1): BatchNorm2d(288, eps=1e-05, momentum=0.1, affine=True, track_running_stats=True)
        (relu): ReLU(inplace=True)
        (conv1): Conv2d(288, 48, kernel_size=(1, 1), stride=(1, 1), bias=False)
        (bn2): BatchNorm2d(48, eps=1e-05, momentum=0.1, affine=True, track_running_stats=True)
        (conv2): Conv2d(48, 12, kernel_size=(3, 3), stride=(1, 1), padding=(1, 1), bias=False)
      )
    )
  )
  (trans2): TransitionBlock(
    (bn1): BatchNorm2d(300, eps=1e-05, momentum=0.1, affine=True, track_running_stats=True)
    (relu): ReLU(inplace=True)
    (conv1): Conv2d(300, 150, kernel_size=(1, 1), stride=(1, 1), bias=False)
  )
  (block3): DenseBlock(
    (layer): Sequential(
      (0): BottleneckBlock(
        (bn1): BatchNorm2d(150, eps=1e-05, momentum=0.1, affine=True, track_running_stats=True)
        (relu): ReLU(inplace=True)
        (conv1): Conv2d(150, 48, kernel_size=(1, 1), stride=(1, 1), bias=False)
        (bn2): BatchNorm2d(48, eps=1e-05, momentum=0.1, affine=True, track_running_stats=True)
        (conv2): Conv2d(48, 12, kernel_size=(3, 3), stride=(1, 1), padding=(1, 1), bias=False)
      )
      (1): BottleneckBlock(
        (bn1): BatchNorm2d(162, eps=1e-05, momentum=0.1, affine=True, track_running_stats=True)
        (relu): ReLU(inplace=True)
        (conv1): Conv2d(162, 48, kernel_size=(1, 1), stride=(1, 1), bias=False)
        (bn2): BatchNorm2d(48, eps=1e-05, momentum=0.1, affine=True, track_running_stats=True)
        (conv2): Conv2d(48, 12, kernel_size=(3, 3), stride=(1, 1), padding=(1, 1), bias=False)
      )
      (2): BottleneckBlock(
        (bn1): BatchNorm2d(174, eps=1e-05, momentum=0.1, affine=True, track_running_stats=True)
        (relu): ReLU(inplace=True)
        (conv1): Conv2d(174, 48, kernel_size=(1, 1), stride=(1, 1), bias=False)
        (bn2): BatchNorm2d(48, eps=1e-05, momentum=0.1, affine=True, track_running_stats=True)
        (conv2): Conv2d(48, 12, kernel_size=(3, 3), stride=(1, 1), padding=(1, 1), bias=False)
      )
      (3): BottleneckBlock(
        (bn1): BatchNorm2d(186, eps=1e-05, momentum=0.1, affine=True, track_running_stats=True)
        (relu): ReLU(inplace=True)
        (conv1): Conv2d(186, 48, kernel_size=(1, 1), stride=(1, 1), bias=False)
        (bn2): BatchNorm2d(48, eps=1e-05, momentum=0.1, affine=True, track_running_stats=True)
        (conv2): Conv2d(48, 12, kernel_size=(3, 3), stride=(1, 1), padding=(1, 1), bias=False)
      )
      (4): BottleneckBlock(
        (bn1): BatchNorm2d(198, eps=1e-05, momentum=0.1, affine=True, track_running_stats=True)
        (relu): ReLU(inplace=True)
        (conv1): Conv2d(198, 48, kernel_size=(1, 1), stride=(1, 1), bias=False)
        (bn2): BatchNorm2d(48, eps=1e-05, momentum=0.1, affine=True, track_running_stats=True)
        (conv2): Conv2d(48, 12, kernel_size=(3, 3), stride=(1, 1), padding=(1, 1), bias=False)
      )
      (5): BottleneckBlock(
        (bn1): BatchNorm2d(210, eps=1e-05, momentum=0.1, affine=True, track_running_stats=True)
        (relu): ReLU(inplace=True)
        (conv1): Conv2d(210, 48, kernel_size=(1, 1), stride=(1, 1), bias=False)
        (bn2): BatchNorm2d(48, eps=1e-05, momentum=0.1, affine=True, track_running_stats=True)
        (conv2): Conv2d(48, 12, kernel_size=(3, 3), stride=(1, 1), padding=(1, 1), bias=False)
      )
      (6): BottleneckBlock(
        (bn1): BatchNorm2d(222, eps=1e-05, momentum=0.1, affine=True, track_running_stats=True)
        (relu): ReLU(inplace=True)
        (conv1): Conv2d(222, 48, kernel_size=(1, 1), stride=(1, 1), bias=False)
        (bn2): BatchNorm2d(48, eps=1e-05, momentum=0.1, affine=True, track_running_stats=True)
        (conv2): Conv2d(48, 12, kernel_size=(3, 3), stride=(1, 1), padding=(1, 1), bias=False)
      )
      (7): BottleneckBlock(
        (bn1): BatchNorm2d(234, eps=1e-05, momentum=0.1, affine=True, track_running_stats=True)
        (relu): ReLU(inplace=True)
        (conv1): Conv2d(234, 48, kernel_size=(1, 1), stride=(1, 1), bias=False)
        (bn2): BatchNorm2d(48, eps=1e-05, momentum=0.1, affine=True, track_running_stats=True)
        (conv2): Conv2d(48, 12, kernel_size=(3, 3), stride=(1, 1), padding=(1, 1), bias=False)
      )
      (8): BottleneckBlock(
        (bn1): BatchNorm2d(246, eps=1e-05, momentum=0.1, affine=True, track_running_stats=True)
        (relu): ReLU(inplace=True)
        (conv1): Conv2d(246, 48, kernel_size=(1, 1), stride=(1, 1), bias=False)
        (bn2): BatchNorm2d(48, eps=1e-05, momentum=0.1, affine=True, track_running_stats=True)
        (conv2): Conv2d(48, 12, kernel_size=(3, 3), stride=(1, 1), padding=(1, 1), bias=False)
      )
      (9): BottleneckBlock(
        (bn1): BatchNorm2d(258, eps=1e-05, momentum=0.1, affine=True, track_running_stats=True)
        (relu): ReLU(inplace=True)
        (conv1): Conv2d(258, 48, kernel_size=(1, 1), stride=(1, 1), bias=False)
        (bn2): BatchNorm2d(48, eps=1e-05, momentum=0.1, affine=True, track_running_stats=True)
        (conv2): Conv2d(48, 12, kernel_size=(3, 3), stride=(1, 1), padding=(1, 1), bias=False)
      )
      (10): BottleneckBlock(
        (bn1): BatchNorm2d(270, eps=1e-05, momentum=0.1, affine=True, track_running_stats=True)
        (relu): ReLU(inplace=True)
        (conv1): Conv2d(270, 48, kernel_size=(1, 1), stride=(1, 1), bias=False)
        (bn2): BatchNorm2d(48, eps=1e-05, momentum=0.1, affine=True, track_running_stats=True)
        (conv2): Conv2d(48, 12, kernel_size=(3, 3), stride=(1, 1), padding=(1, 1), bias=False)
      )
      (11): BottleneckBlock(
        (bn1): BatchNorm2d(282, eps=1e-05, momentum=0.1, affine=True, track_running_stats=True)
        (relu): ReLU(inplace=True)
        (conv1): Conv2d(282, 48, kernel_size=(1, 1), stride=(1, 1), bias=False)
        (bn2): BatchNorm2d(48, eps=1e-05, momentum=0.1, affine=True, track_running_stats=True)
        (conv2): Conv2d(48, 12, kernel_size=(3, 3), stride=(1, 1), padding=(1, 1), bias=False)
      )
      (12): BottleneckBlock(
        (bn1): BatchNorm2d(294, eps=1e-05, momentum=0.1, affine=True, track_running_stats=True)
        (relu): ReLU(inplace=True)
        (conv1): Conv2d(294, 48, kernel_size=(1, 1), stride=(1, 1), bias=False)
        (bn2): BatchNorm2d(48, eps=1e-05, momentum=0.1, affine=True, track_running_stats=True)
        (conv2): Conv2d(48, 12, kernel_size=(3, 3), stride=(1, 1), padding=(1, 1), bias=False)
      )
      (13): BottleneckBlock(
        (bn1): BatchNorm2d(306, eps=1e-05, momentum=0.1, affine=True, track_running_stats=True)
        (relu): ReLU(inplace=True)
        (conv1): Conv2d(306, 48, kernel_size=(1, 1), stride=(1, 1), bias=False)
        (bn2): BatchNorm2d(48, eps=1e-05, momentum=0.1, affine=True, track_running_stats=True)
        (conv2): Conv2d(48, 12, kernel_size=(3, 3), stride=(1, 1), padding=(1, 1), bias=False)
      )
      (14): BottleneckBlock(
        (bn1): BatchNorm2d(318, eps=1e-05, momentum=0.1, affine=True, track_running_stats=True)
        (relu): ReLU(inplace=True)
        (conv1): Conv2d(318, 48, kernel_size=(1, 1), stride=(1, 1), bias=False)
        (bn2): BatchNorm2d(48, eps=1e-05, momentum=0.1, affine=True, track_running_stats=True)
        (conv2): Conv2d(48, 12, kernel_size=(3, 3), stride=(1, 1), padding=(1, 1), bias=False)
      )
      (15): BottleneckBlock(
        (bn1): BatchNorm2d(330, eps=1e-05, momentum=0.1, affine=True, track_running_stats=True)
        (relu): ReLU(inplace=True)
        (conv1): Conv2d(330, 48, kernel_size=(1, 1), stride=(1, 1), bias=False)
        (bn2): BatchNorm2d(48, eps=1e-05, momentum=0.1, affine=True, track_running_stats=True)
        (conv2): Conv2d(48, 12, kernel_size=(3, 3), stride=(1, 1), padding=(1, 1), bias=False)
      )
    )
  )
  (bn1): BatchNorm2d(342, eps=1e-05, momentum=0.1, affine=True, track_running_stats=True)
  (relu): ReLU(inplace=True)
  (fc): Linear(in_features=342, out_features=10, bias=True)
  (softmax): Softmax(dim=1)
)
load GAN
Setup optimizer
0.001
  0%|          | 0/100 [00:00<?, ?it/s]/home/xysong/.conda/envs/OoD/lib/python3.9/site-packages/torch/nn/functional.py:2904: UserWarning: reduction: 'mean' divides the total loss by both the batch size and the support size.'batchmean' divides only by the batch size, and aligns with the KL div math definition.'mean' will be changed to behave the same as 'batchmean' in the next major release.
…
